…
 dependent hyperparameters 两类参数，现在再介绍一类参数就是 learnable parameters。 Learnable parameters 是指参数的值在训练过程中可以被学习的参数。 Learnable parameters 一般随机给定初值，并随着网络学习以迭代方式更新这些值。所谓学习就是指通过迭代的方法逐渐寻找到使得损失函数最小的参数值。 （2）创建神经网络实例化对象我们首先对上一集创建的网络进行实例化： 1network = Network() 这样我们利用扩展的 Network 类实例化了一个名为 network 的 object。 在上一集的笔记说过，我们是利用扩展 nn.Module class 的方法构建了 Network subclass，并且指定了5个 layer 作为 class attributes。实例化之后，layer 就是 network 这个 object 的属性了，而属性本身也可以是一个 object（可以套娃）。而我们创建的 layer 本身也是通过预定义的类创建的，而权值 weight 就是 layer 这些 object 中的属性。 Network String Representation 实例化之后，如果我们输入如下代码： 12345678&gt; print(network)Network( (conv1): Conv2d(1, 6, kernel_size=(5, 5), stride=(1, 1)) (conv2): Conv2d(6, 12, kernel_size=(5, 5), stride=(1, 1)) (fc1): Linear(in_features=192, out_features=120, bias=True) (fc2): Linear(in_features=120, out_features=60, bias=True) (out): Linear(in_features=60, out_features=10, bias=True)) 会发现输出了一段字符信息，告诉我们这个网络的结构和参数是怎样的。network object 具有这个功能是因为他是扩展自 nn.Module 类创建的，继承了 nn.Module 类中功能，而并非是由我们编写的（你可以尝试一下把 Network class 括号内的“nn.Module”删掉，再把第三行 super 那一行删掉，就没有这个功能了）。准确的说，这个输出 string representation 的功能是继承自Python默认的一个 object base class，所有的Python class 都是通过扩展 object 基类创建的。 Overriding 如果想要按照自己设定的格式，需要修改这个已经设定好的功能，称作重写（override），上一集的笔记也讲过这个概念了。 于是
…
f.conv2 = nn.Conv2d(in_channels=6, out_channels=12, kernel_size=5) self.fc1 = nn.Linear(in_features=12*4*4, out_features=120) self.fc2 = nn.Linear(in_features=120, out_features=60) self.out = nn.Linear(in_features=60, out_features=10) def forward(self, t): # implement the forward pass return t def __repr__(self): # 重写 string representation return &quot;lizardnet&quot; 这时候就会有： 12&gt; print(network)lizardnet 所以实际上，PyTorch中的 nn.Module class 也是重写了Python的 object class 中的 repr(self) 函数。一言不合看源码（nn.Module 中重写的函数）： String Representation 的解释 接下来解释一下打印出的这些信息的含义： 12345678&gt; print(network)Network( (conv1): Conv2d(1, 6, kernel_size=(5, 5), stride=(1, 1)) (conv2): Conv2d(6, 12, kernel_size=(5, 5), stride=(1, 1)) (fc1): Linear(in_features=192, out_features=120, bias=True) (fc2): Linear(in_features=120, out_features=60, bias=True) (out): Linear(in_features=60, out_features=10, bias=True)) 卷积层的 kernel_size 上一集也说过了，只输入一个5，但 filter 是正方形的，因此 kernel_size 就是 55的。*stride 这个参数上一集没有设置，没有设置的时候默认为 (1,1)，这个参数指定的是 filter 在扫描的时候每次移动的距离，即每次向右移动1个像素，扫面完一行之后再回到最左边并下移1个像素。 （3）访问网络的 layer因为 layer 是 network 这个对象的属性，像很多语言一样，Python使用“.”这个标记来访问对象的属性，比如“object.attribute”，前面也用过很多次了。 1234567891011121314&gt; network.conv1Conv2d(1, 6, kernel_size=(5, 5), stride=(1,
…
